model/car_hacking_model.pt (torch, 126795 bytes, 9 tensors)

encoder.weight_ih_l0 f4 [200, 1]
-0.1431523 0.09863826 -0.014656731 0.1540023 0.1512954 0.17374547 -0.033164106 0.08937363
0.10253385 0.05240669 -0.0030499937 0.02384786 0.014075245 -0.011210244 -0.06368886 -0.0903156
-0.04394871 0.10334337 0.054128937 0.0662678 -0.035020616 0.17985307 0.23016283 0.09872999
-0.081002176 0.104418986 0.16235806 -0.09255375 0.04613038 -0.048868712 -0.024091149 0.1161863
0.019291895 0.14384626 0.07545236 -0.054520402 0.14665923 0.084918 0.17733599 -0.058434203
0.13027665 0.028749038 0.14771764 0.15031996 -0.042534944 -0.036160175 -0.033459857 -0.049062252
-0.042709995 0.12320138 -0.1473302 -0.08671279 -0.12528417 -0.00048629582 -0.036042586 0.03703252
-0.01605151 -0.027181042 -0.040809274 0.036755577 0.05870153 -0.0031679245 -0.093618155 0.13804904
-0.09216146 0.052793898 -0.061470266 -0.073587075 0.11054647 -0.04491591 0.021999234 -0.0606112
0.10176097 0.006569027 0.14571133 -0.020250944 0.15132731 -0.0041894377 0.09147674 0.11033908
0.0053323265 0.1027906 -0.04886659 0.048536163 0.18791252 -0.034735527 0.09378979 0.15683132
-0.023383673 0.046782207 -0.013070939 0.0032136142 0.101476826 -0.05246593 -0.06329731 -0.10213035
0.05266514 -0.05279605 0.12861815 -0.010133278 -0.024744438 -0.1401078 0.06511797 -0.113406435
-0.06271293 -0.025521511 -0.061891418 -0.081700556 -0.001090577 0.07147699 -0.13949996 0.1365632
0.050557584 -0.05849705 -0.030497015 0.058164373 0.087674506 -0.123726524 -0.009100604 0.1351638
0.08148906 0.118924536 -0.20249164 -0.10697209 0.0050904513 -0.16796835 0.17339784 -0.1400024
-0.04237982 -0.16911307 -0.13085723 0.12789841 0.070154704 -0.054359205 0.08810381 0.1776555
0.095004424 -0.11201163 0.16564249 0.17615987 -0.05856402 -0.026417399 -0.114629224 -0.045493554
-0.07471207 0.07155927 -0.10416145 -0.06536507 -0.10030603 -0.15135333 -0.015321815 0.072463945
0.012849265 0.0060553295 0.088559195 -0.047970712 0.030885695 0.13828959 -0.06805434 -0.08424598
-0.039458964 0.011022862 -0.085077256 0.048112947 -0.024105858 -0.080742635 -0.104427025 0.13724998
-0.042239785 -0.13569282 0.014748246 0.027501792 0.0008023378 0.04693031 -0.09507787 0.1308087
0.05037834 -0.06494984 0.06294196 -0.013973724 -0.050247557 -0.044289876 0.17267379 -0.089892104
-0.031225335 -0.056443755 0.026210599 -0.096348986 0.108186595 0.13160755 0.059151378 -0.06029296
-0.04666283 -0.06604806 0.010292489 0.07011145 -0.05878397 -0.027159803 -0.0035533628 0.16767558
00000000: 8496 12be db02 ca3d c922 70bc c7b2 1d3e
00000010: 2eed 1a3e 55ea 313e 16d7 07bd 8609 b73d
00000020: 44fd d13d 66a8 563d 67e2 47bb 965c c33c
00000030: db9b 663c 2cab 37bc 4e6f 82bd 63f7 b8bd
00000040: 9003 34bd b0a5 d33d 4eb6 5d3d 6ab7 873d
00000050: c771 0fbd 672b 383e ceaf 6b3e f332 ca3d
00000060: 78e4 a5bd 9fd9 d53d 3141 263e d28c bdbd
00000070: 36f3 3c3d 8f2a 48bd cd5a c5bc 15f3 ed3d
00000080: 090a 9e3c 6f4c 133e c486 9a3d c950 5fbd
00000090: d62d 163e 7de9 ad3d 9197 353e b458 6fbd
000000a0: 3e67 053e 1a83 eb3c 4b43 173e 7aed 193e
000000b0: 1f39 2ebd b11c 14bd 340d 09bd 80f5 48bd
000000c0: adf0 2ebd 0151 fc3d badd 16be 7a96 b1bd
000000d0: 7e4a 00be 85f5 feb9 64a1 13bd 69af 173d
000000e0: 757e 83bc c7aa debc a027 27bd 048d 163d
000000f0: 0471 703d f49c 4fbb e0ba bfbd ba5c 0d3e
00000100: 26bf bcbd 6a3e 583d 3fc8 7bbd d2b4 96bd
00000110: 3066 e23d bff9 37bd bd37 b43c 7343 78bd
00000120: 0e68 d03d fe40 d73b 5a35 153e 4fe5 a5bc
00000130: 8cf5 1a3e 8d47 89bb 2858 bb3d 75f9 e13d
00000140: ccba ae3b e183 d23d 5528 48bd dbcd 463d
00000150: 246c 403e d746 0ebd dd14 c03d 6498 203e
00000160: 1e8f bfbc b39e 3f3d 7e27 56bc 809b 523b
00000170: 15d3 cf3d 84e6 56bd 05a2 81bd b829 d1bd
00000180: 67b7 573d ac40 58bd 7ab4 033e 0c06 26bc
00000190: d9b4 cabc 6b78 0fbe 925c 853d a241 e8bd
000001a0: a36f 80bd 7d12 d1bc db81 7dbd 9f52 a7bd
000001b0: b1f1 8eba 8762 923d 14d9 0ebe 39d7 0b3e
000001c0: 7815 4f3d 9a9a 6fbd e0d4 f9bc c43d 6e3d
000001d0: b18e b33d 5564 fdbd b31a 15bc 6168 0a3e
000001e0: bce3 a63d b58e f33d f859 4fbe 2f14 dbbd
000001f0: cdcd a63b e5ff 2bbe 348f 313e ca5c 0fbe
00000200: 7696 2dbd fa2b 2dbe 70ff 05be cdf7 023e
00000210: 45ad 8f3d c2a7 5ebd c56f b43d 53eb 353e
00000220: ae91 c23d 5a66 e5bd 2f9e 293e 4163 343e
00000230: d3e0 6fbd 4d69 d8bc bac2 eabd 7357 3abd
00000240: a402 99bd ab8d 923d 9952 d5bd 1fde 85bd
00000250: 3f6d cdbd 5efc 1abe 5a08 7bbc fa67 943d
00000260: b985 523c c96b c63b 865e b53d f07c 44bd
00000270: ff03 fd3c c99b 0d3e 1360 8bbd 2889 acbd
00000280: b99f 21bd 3c99 343c fc3c aebd 1512 453d
00000290: a679 c5bc 655c a5bd d6dd d5bd 428b 0c3e
000002a0: a003 2dbd 0ff3 0abe a1a2 713c 704b e13c
000002b0: fa53 523a ff39 403d 30b8 c2bd b7f2 053e
000002c0: 8559 4e3d 6c04 85bd b7e7 803d 0cf2 64bc
000002d0: 62d0 4dbd 4d69 35bd 66d1 303e 5a19 b8bd
000002e0: 46cc ffbc 9131 67bd 9cb7 d63c 9e52 c5bd
000002f0: ef90 dd3d 21c4 063e b748 723d c0f5 76bd
00000300: 8621 3fbd 3544 87bd d4a1 283c 9896 8f3d
00000310: 76c7 70bd 3c7e debc 89df 68bb 26b3 2b3e

encoder.weight_hh_l0 f4 [200, 50]
0.119818844 -0.019754156 -0.08069534 0.09677418 0.06547846 0.05551701 0.16388153 0.011572242
-0.017691167 -0.0487158 0.14502631 0.085394464 -0.10228638 -0.024499597 -0.095363274 -0.0016833971
0.013444236 0.16800089 0.08285679 -0.07386357 0.070263945 -0.07546894 0.008601581 0.12638028
0.004566983 -0.06144473 -0.039693546 0.013668688 -0.028492026 -0.10153837 0.07364155 -0.15967618
0.06953964 0.09105685 0.07559567 -0.08933652 -0.015030698 -0.01558394 -0.101953596 -0.01964553
0.094580315 -0.050462298 0.051548384 0.031979747 -0.11938257 -0.014924616 0.08835699 0.0037209566
0.14542547 -0.0964949 0.04466427 -0.019698976 0.06383968 0.08480924 0.05309795 -0.11607408
-0.12909503 0.036246084 0.034985837 -0.09492096 -0.051748488 0.057206016 -0.060187537 -0.11068732
-0.14625005 -0.107469074 -0.083400905 -0.1161613 -0.09730168 0.09184044 -0.13317086 0.012314086
-0.046548314 0.022769822 0.022921957 -0.091115534 -0.061548363 0.043184478 0.106516235 -0.0028579577
0.114048146 -0.044246465 0.13793054 0.016046697 0.1428437 0.11875441 -0.053520687 0.010412689
0.0166805 0.06841802 0.05487814 -0.022448707 -0.0766875 -0.055723816 0.124992 0.040559094
0.062394597 0.14458741 -0.01848035 0.10579206 0.11025921 0.030736776 -0.0028536282 -0.1469878
-0.05510101 0.091118746 0.18521169 0.045953855 0.06528885 -0.110883296 -0.040918224 0.025195453
0.08438843 0.07712586 -0.07024998 0.12189711 0.11116467 -0.096217096 -0.088174574 -0.06204074
0.0549292 -0.028396787 0.07284775 -0.085419394 0.12366672 -0.066398196 0.099522024 -0.08465509
-0.038291935 -0.021115666 -0.006884675 0.027535643 -0.16764167 -0.01804924 0.087632656 0.086808346
0.04849958 -0.0235457 -0.1324758 -0.17775004 -0.0034984688 0.050965134 0.15906389 -0.021695009
-0.03347641 -0.027373686 -0.07953966 0.0014748619 -0.072796784 0.17885786 0.12543155 -0.1151676
0.03652818 0.1049745 0.06663665 -0.011002324 0.101520814 0.102968834 -0.108760014 -0.041723117
-0.037941154 0.041538287 0.095229216 -0.081994556 -0.053912714 0.10237604 -0.22901626 -0.0006003826
-0.05033786 -0.06675797 -0.13241908 -0.01288581 0.52312815 -0.14057676 0.10856261 0.036312174
0.023431694 -0.08093929 -0.041117873 -0.15183306 -0.1355884 0.06692552 -0.04851457 -0.08795903
-0.07978339 -0.037877705 -0.10936009 -0.0055933613 -0.084994465 -0.106998816 0.104460195 0.19732854
0.036823846 -0.12953463 -0.07663289 0.013849527 0.035272118 0.12226514 0.020508409 -0.1603958
-0.14059138 0.062753 -0.109068654 -0.017180856 0.078297995 -0.047869366 0.124243364 -0.06967089
-0.017319854 0.086247936 0.099575214 -0.12536545 -0.05742342 0.11217504 -0.10670246 0.08971662
-0.0887579 -0.097345605 -0.13540637 -0.08528694 0.06287183 0.06339665 -0.110666335 0.10664175
-0.12732217 0.052901626 0.021781212 0.03817929 0.11826872 -0.083863676 0.117696345 0.13264376
-0.11940531 0.081289686 0.091377445 -0.047590524 0.12875834 0.060107592 0.084554605 -0.07522824
-0.043761984 0.051770937 -0.018038958 -0.0064161858 0.083689466 -0.030986005 -0.027805436 0.06001589
0.12519534 -0.05925785 -0.0027096826 -0.14228016 0.08117674 0.0956999 -0.05751793 -0.041081913
00000000: 9563 f53d 78d3 a1bc 9943 a5bd 8b31 c63d
00000010: 9219 863d ce65 633d 8fd0 273e 8099 3d3c
00000020: 11ed 90bc 388a 47bd c781 143e 4be3 ae3d
00000030: 867b d1bd 61b3 c8bc d24d c3bd 6fa5 dcba
00000040: 3645 5c3c 6d08 2c3e d2b0 a93d c945 97bd
00000050: 8be6 8f3d 768f 9abd a5ed 0c3c d569 013e
00000060: a1a6 953b 78ad 7bbd b395 22bd a2f2 5f3c
00000070: 1c68 e9bc 59f3 cfbd 62d1 963d 2782 23be
00000080: cc6a 8e3d 047c ba3d e7d1 9a3d 11f6 b6bd
00000090: 5143 76bc c853 7fbc 0ccd d0bd aaef a0bc
000000a0: 53b3 c13d 8eb1 4ebd 6624 533d 32fd 023d
000000b0: d97e f4bd 6086 74bc 82f4 b43d 4bdb 733b
000000c0: 6aea 143e 1e9f c5bd e2f1 363d bf5f a1bc
000000d0: 61be 823d 78b0 ad3d 3c7d 593d 3fb8 edbd
000000e0: 7d31 04be c676 143d 4f4d 0f3d ec65 c2bd
000000f0: 39f6 53bd db50 6a3d 3587 76bd 09b0 e2bd
00000100: 93c2 15be bf18 dcbd 18ce aabd fae5 edbd
00000110: 1a46 c7bd d716 bc3d f15d 08be 05c1 493c
00000120: 72a9 3ebd c787 ba3c d4c6 bb3c c89a babd
00000130: 231a 7cbd 35e2 303d 2f25 da3d 934c 3bbb
00000140: 1392 e93d c83b 35bd aa3d 0d3e 5d74 833c
00000150: 9e45 123e 8335 f33d 8238 5bbd fc99 2a3c
00000160: 8ba5 883c bf1e 8c3d e7c7 603d 5ae6 b7bc
00000170: 560e 9dbd a83e 64bd cefb ff3d 4b21 263d
00000180: 7a91 7f3d b90e 143e 1a64 97bc 82a9 d83d
00000190: 95cf e13d b1cb fb3c f003 3bbb f883 16be
000001a0: 99b1 61bd 779c ba3d 22a8 3d3e 1c3a 3c3d
000001b0: 29b6 853d c816 e3bd de99 27bd b266 ce3c
000001c0: d7d3 ac3d 2af4 9d3d 39df 8fbd 31a5 f93d
000001d0: 4daa e33d 780d c5bd df94 b4bd 6e1e 7ebd
000001e0: 71fd 603d 61a0 e8bc 3331 953d 5df0 aebd
000001f0: fa44 fd3d c7fb 87bd 34d2 cb3d a65f adbd
00000200: 01d8 1cbd c3fa acbc d798 e1bb 6e92 e13c
00000210: 42aa 2bbe 00dc 93bc c078 b33d 93c8 b13d
00000220: 7fa7 463d e9e2 c0bc bca7 07be 1b04 36be
00000230: 9146 65bb d1c0 503d a5e1 223e bbb9 b1bc
00000240: 8f1e 09bd c83e e0bc b0e5 a2bd 2750 c13a
00000250: 7b16 95bd 8426 373e 2171 003e fedc ebbd
00000260: 939e 153d dffc d63d cc78 883d 1743 34bc
00000270: 25ea cf3d 53e1 d23d 92bd debd dce5 2abd
00000280: 2f68 1bbd 0d24 2a3d 8907 c33d c3ec a7bd
00000290: 94d3 5cbd 87aa d13d 3d83 6abe ff62 1dba
000002a0: 122f 4ebd 67b8 88bd de98 07be 011f 53bc
000002b0: baeb 053f 5bf3 0fbe 1356 de3d 13bc 143d
000002c0: d3f3 bf3c 80c3 a5bd 376b 28bd 207a 1bbe
000002d0: afd7 0abe 3f10 893d 37b7 46bd dd23 b4bd
000002e0: 7965 a3bd a725 1bbd 2ff8 dfbd 8448 b7bb
000002f0: 9411 aebd 3222 dbbd 3aef d53d 7e10 4a3e
00000300: 9ad4 163d baa4 04be b4f1 9cbd 20e9 623c
00000310: 7f79 103d 2566 fa3d 4001 a83c cc3e 24be
00000320: 30f7 0fbe a584 803d 635f dfbd debe 8cbc
00000330: b35a a03d ab12 44bd 4e73 fe3d 9daf 8ebd
00000340: 5ee2 8dbc c2a2 b03d 17ee cb3d cd5f 00be
00000350: d234 6bbd 07bc e53d d286 dabd 59bd b73d
00000360: b4c6 b5bd 225d c7bd f8a7 0abe ebaa aebd
00000370: f2c2 803d 1ad6 813d 08a5 e2bd fd66 da3d
00000380: be60 02be 60af 583d 836e b23c e361 1c3d
00000390: df36 f23d b8c0 abbd c80a f13d c4d3 073e
000003a0: c58a f4bd 357b a63d 1924 bb3d 48ee 42bd
000003b0: 3ad9 033e 6133 763d f72a ad3d 4311 9abd
000003c0: c43f 33bd c30d 543d 70c6 93bc de3e d2bb
000003d0: 6265 ab3d 5dd6 fdbc 3ac8 e3bc 39d3 753d
000003e0: 3533 003e 5cb8 72bd ee94 31bb e4b1 11be
000003f0: fe3f a63d 4ffe c33d ec97 6bbd 8245 28bd

encoder.bias_ih_l0 f4 [200]
0.10138328 -0.01785449 -0.15668328 -0.022078726 -0.035722483 -0.08884725 -0.025280384 0.083294295
-0.1172855 -0.122619055 0.15790164 0.0587392 0.09687547 0.11710791 0.040211514 0.023155253
0.0773469 -0.09481512 0.09671062 -0.06598618 -0.05350758 0.048642833 0.2134993 0.07073511
-0.025243253 0.11681331 0.08642379 0.005114216 -0.026633047 0.06042483 0.040819313 0.0071877944
0.03135463 -0.049858395 -0.11193959 0.033500608 -0.070652544 0.0048792395 0.13740967 -0.040048845
-0.09351921 -0.11054501 -0.11217003 0.06863272 -0.13462415 0.10089946 0.030553399 -0.0023220743
-0.07314154 -0.017739609 -0.05738892 -0.059051502 -0.082374886 0.10439227 0.08143819 -0.09593738
-0.08521332 0.10371335 -0.1216063 -0.00017471104 0.09107238 0.090448685 -0.15048385 -0.14227878
0.047246333 0.09156957 0.07920275 -0.02326112 0.09690306 0.06827675 -0.11220837 0.14298792
0.14493346 -0.11794536 0.05622972 -0.053600974 0.095502585 -0.07822592 0.06351766 -0.044871006
0.09075403 0.09783885 0.066484384 -0.028719824 0.058477543 0.14883138 0.05621947 -0.11844957
0.12961964 0.15446475 0.062887184 -0.12065101 0.0023541178 -0.0601481 -0.043946546 -0.085927986
-0.009270911 0.10389488 -0.12107368 -0.046535827 0.09014552 -0.0064964886 0.015832847 0.11610308
-0.14669596 -0.14616379 0.07490476 -0.13106447 0.12002014 0.08281447 0.053735964 -0.1024416
0.1059903 0.12452033 -1.3167449e-05 -0.10036826 0.061302096 -0.11865858 -0.044985402 0.036840003
-0.083803765 -0.09661138 0.17174062 -0.11680119 -0.07691905 0.00857475 -0.07687123 -0.026576677
-0.05980397 -0.026546175 -0.08850841 0.057921503 0.14289805 0.12997422 -0.011445945 -0.104600675
-0.040780716 -0.025719952 0.07138579 0.081805274 -0.047312006 0.13639867 -0.09503831 -0.090215646
0.03536528 -0.06860822 0.06284976 0.11563241 0.050781183 -0.03852145 0.0417155 0.043418624
0.022621017 0.06682412 0.0051484522 0.08888288 -0.07477805 0.0018159711 -0.14379741 0.14040396
-0.083725736 0.022565376 0.042762004 -0.03366644 0.045127418 0.09748904 -0.022951242 0.15174377
-0.06514069 0.05583739 0.044496365 0.054303326 0.24597186 -0.11698732 -0.17040974 -0.074702665
0.12361134 0.042985227 -0.092254266 0.13789828 -0.03961615 0.030731438 -0.10044595 0.08158279
-0.047446694 0.067978136 0.06424604 0.0656041 -0.059365533 0.1303767 0.11183679 0.06367111
0.059807573 -0.11048231 -0.03149721 0.08643867 0.09340102 0.10901537 -0.11112948 0.03274117
00000000: 09a2 cf3d 9443 92bc 9571 20be 72de b4bc
00000010: bd51 12bd 8cf5 b5bd cf18 cfbc 3396 aa3d
00000020: 6133 f0bd b31f fbbd f8b0 213e 8498 703d
00000030: a566 c63d 46d6 ef3d d4b4 243d 16b0 bd3c
00000040: 0d68 9e3d 6e2e c2bd 3810 c63d c323 87bd
00000050: c42a 5bbd b53d 473d 8f9f 5a3e 92dd 903d
00000060: f0ca cebc d13b ef3d f5fe b03d 2795 a73b
00000070: 8c2d dabc 0780 773d 2732 273d 9787 eb3b
00000080: b66d 003d 5138 4cbd 9540 e5bd ef37 093d
00000090: 48b2 90bd 07e2 9f3b 1fb5 0c3e 420a 24bd
000000a0: 0087 bfbd 6c65 e2bd 67b9 e5bd 508f 8c3d
000000b0: eada 09be 60a4 ce3d 1f4b fa3c f12d 18bb
000000c0: 3bcb 95bd a852 91bc a510 6bbd fddf 71bd
000000d0: 2ab4 a8bd 9dcb d53d 11c9 a63d d17a c4bd
000000e0: 5284 aebd aa67 d43d b90c f9bd a332 37b9
000000f0: 2884 ba3d 293d b93d 7018 1abe 87b1 11be
00000100: 5f85 413d d488 bb3d 0d35 a23d 1b8e bebc
00000110: 1d75 c63d aed4 8b3d 80cd e5bd 6d6b 123e
00000120: 7069 143e 568d f1bd 2351 663d b28c 5bbd
00000130: dc96 c33d e934 a0bd 8c15 823d a9ca 37bd
00000140: 40dd b93d bc5f c83d f728 883d d645 ebbc
00000150: 2686 6f3d 4167 183e 6346 663d b095 f2bd
00000160: 03bb 043e 022c 1e3e ffca 803d e017 f7bd
00000170: 8b47 1a3b db5d 76bd 4b01 34bd 03fb afbd
00000180: 05e5 17bc d7c6 d43d 7af5 f7bd 5a9c 3ebd
00000190: 379e b83d 7fe0 d4bb e3b3 813c 74c7 ed3d
000001a0: 7737 16be f6ab 15be ab67 993d c435 06be
000001b0: 1fcd f53d a29a a93d 3e1a 5c3d e7cc d1bd
000001c0: 7111 d93d 8404 ff3d c3e9 5cb7 e08d cdbd
000001d0: e817 7b3d 4503 f3bd 9d42 38bd 8be5 163d
000001e0: 4fa1 abbd 30dc c5bd c6dc 2f3e 7635 efbd
000001f0: bc87 9dbd 1c7d 0c3c aa6e 9dbd 55b7 d9bc
00000200: 02f5 74bd 5d77 d9bc e643 b5bd 193f 6d3d
00000210: de53 123e f617 053e c687 3bbc e138 d6bd
00000220: ae09 27bd a6b2 d2bc b732 923d 8689 a73d
00000230: 3cca 41bd 18ac 0b3e 72a3 c2bd fbc2 b8bd
00000240: 2fdb 103d 7782 8cbd 60b7 803d afd0 ec3d
00000250: eeff 4f3d abc8 1dbd dfdd 2a3d bad7 313d
00000260: b64f b93c 16db 883d 59b4 a83b 3a08 b63d
00000270: 3c25 99bd e105 ee3a a13f 13be 0ec6 0f3e
00000280: 6678 abbd 06db b83c 3627 2f3d d2e5 09bd
00000290: 87d7 383d 55a8 c73d 3e04 bcbc b862 1b3e
000002a0: 7b68 85bd bfb5 643d d241 363d 2a6d 5e3d
000002b0: 0ce0 7b3e 0c97 efbd e47f 2ebe b6fd 98bd
000002c0: f127 fd3d 4711 303d ceef bcbd 3535 0d3e
000002d0: 8b44 22bd 7fc0 fb3c 9bb6 cdbd e114 a73d
000002e0: 7757 42bd 1f38 8b3d 6e93 833d 715b 863d
000002f0: 4629 73bd 7881 053e b00a e53d 0066 823d
00000300: c9f8 743d 8d44 e2bd 3803 01bd c206 b13d
00000310: 0949 bf3d 7343 df3d da97 e3bd 9b1b 063d

encoder.bias_hh_l0 f4 [200]
0.019543018 -0.070121676 -0.17003372 0.18207966 -0.0958169 0.05687479 0.103034034 -0.06761915
0.07175026 -0.047061782 -0.011178649 -0.07044335 -0.12595405 -0.032431047 -0.044770394 -0.11477512
0.09455641 -0.10181874 -0.080787264 0.07413265 0.06255008 0.17560358 0.28439704 -0.055162717
-0.123850584 0.02789096 -0.04141368 0.118066505 -0.06452334 0.076680794 -0.046087928 0.12904653
-0.122272424 0.051217623 0.15679505 0.014637171 -0.07799475 -0.042810418 0.051551748 -0.09866394
-0.1346058 0.014399919 -0.09102025 -0.05883844 -0.031366874 -0.15520196 -0.010357225 0.09750935
0.11046365 -0.006955241 0.06743207 0.05111808 -0.033603016 0.007997183 -0.052084133 -0.05147189
0.06306888 -0.082772315 0.000813316 -0.11946592 -0.047767684 0.04396585 0.051380515 -0.08282214
-0.023361364 -0.026129873 -0.10115863 0.037684873 0.15322587 0.02048562 -0.044307727 -0.12627684
0.077435285 -0.11878668 0.020269174 0.09553315 -0.024108533 -0.05312869 -0.01861204 0.08685324
-0.0658749 0.13846992 -0.072107136 0.015573894 -0.008487488 0.01764893 0.10497482 -0.071373835
0.104289256 -0.06725424 -0.06043893 -0.025301391 0.10474734 -0.12243252 -0.06853745 0.10138783
-0.034811843 -0.078899674 0.04104169 -0.12018498 -0.09114587 0.02600642 0.014859432 -0.013907019
-0.0479591 -0.0091988845 -0.14410691 -0.11837046 0.10757336 -0.011635656 -0.084064595 -0.08405673
0.08028143 0.011064045 0.0593006 0.021102967 -0.12185011 -0.030466761 -0.13145174 -0.12823252
0.037937474 -0.051686764 -0.09927454 -0.058702253 0.032508124 -0.102315076 0.01946061 -0.115612805
-0.0655692 -0.028328368 -0.04800464 0.035707913 0.073216476 0.1105267 -0.0023018208 0.11869027
0.07337486 0.12465386 0.07525382 0.0042918534 -0.011679656 -0.10473373 0.16464992 -0.07082005
-0.0021019576 -0.041294824 0.04934327 0.057106823 -0.057502877 -0.042208698 0.06865203 -0.10946421
0.03272939 0.14054509 -0.0033402042 0.05836821 0.11331527 0.12234421 -0.08657724 0.06251054
-0.025140056 0.03283873 -0.06575298 -0.08361977 -0.04878057 -0.080644995 -0.05576329 0.039970886
0.06358123 0.014944385 0.07806456 0.077952154 0.23713544 0.011901833 -0.10866056 -0.024259778
0.13940017 0.011306584 -0.06980747 0.11419998 -0.041159157 -0.038850084 -0.03584028 -0.06876595
-0.112487964 0.09482729 -0.095935 -0.041158136 0.112768166 0.12386194 -0.06688832 -0.1428056
-0.08734707 -0.122848384 0.081717476 -0.10625751 0.015093862 0.040493067 -0.064795606 0.044449653
00000000: ae18 a03c f49b 8fbd 521d 2ebe 1773 3a3e
00000010: a73b c4bd 8af5 683d 8203 d33d e97b 8abd
00000020: cdf1 923d dbc3 40bd a726 37bc 9a44 90bd
00000030: 19fa 00be 6bd6 04bd 2961 37bd 380f ebbd
00000040: cba6 c13d 5886 d0bd cb73 a5bd dcd2 973d
00000050: 421a 803d 6dd1 333e 7d9c 913e 4df2 61bd
00000060: 60a5 fdbd 957b e43c 64a1 29bd dacc f13d
00000070: d024 84bd d20a 9d3d b2c6 3cbd c624 043e
00000080: f769 fabd 92c9 513d e28e 203e bfd0 6f3c
00000090: b6bb 9fbd fa59 2fbd ed27 533d 5210 cabd
000000a0: 1ad6 09be a3ed 6b3c d368 babd 9300 71bd
000000b0: 8d7a 00bd 43ed 1ebe 5ab1 29bc fbb2 c73d
000000c0: c43a e23d cae8 e3bb d319 8a3d 3161 513d
000000d0: 51a3 09bd 9e06 033c 2c56 55bd 30d4 52bd
000000e0: 422a 813d 8884 a9bd b634 553a 8caa f4bd
000000f0: 0ca8 43bd 8915 343d 6074 523d a79e a9bd
00000100: 5560 bfbc 510e d6bc 412c cfbd 745b 1a3d
00000110: 3ee7 1c3e 75d1 a73c 057c 35bd b74e 01be
00000120: 6496 9e3d 6e46 f3bd 8a0b a63c e2a6 c33d
00000130: 427f c5bc 789d 59bd 4778 98bc 1de0 b13d
00000140: 6be9 86bd 0fcb 0d3e e8ac 93bd a529 7f3c
00000150: 1b0f 0bbc 7d94 903c 0afd d63d 722c 92bd
00000160: 9b95 d53d 97bc 89bd d08e 77bd dd44 cfbc
00000170: c685 d63d e7bd fabd 5d5d 8cbd 6ca4 cf3d
00000180: dd96 0ebd 2796 a1bd 551b 283d 8b23 f6bd
00000190: b0aa babd 6a0b d53c fa74 733c 44da 63bc
000001a0: c370 44bd ebb6 16bc c390 13be 366c f2bd
000001b0: 6c4f dc3d 7aa3 3ebc 0f2a acbd ef25 acbd
000001c0: 976a a43d f845 353c 30e5 723d 21e0 ac3c
000001d0: 8d8c f9bd 6e95 f9bc 499b 06be 634f 03be
000001e0: 5364 1b3d 80b5 53bd 7350 cbbd c671 70bd
000001f0: 3d27 053d 918a d1bd db6b 9f3c 68c6 ecbd
00000200: 2549 86bd e510 e8bc 83a0 44bd 7642 123d
00000210: 85f2 953d d35b e23d 25da 16bb e213 f33d
00000220: 8f45 963d 864a ff3d ad1e 9a3d ada2 8c3b
00000230: 075c 3fbc a37e d6bd fd99 283e 1a0a 91bd
00000240: ffc0 09bb c324 29bd 2b1c 4a3d d8e8 693d
00000250: 2388 6bbd 07e3 2cbd 6f99 8c3d c62e e0bd
00000260: 410f 063d 0deb 0f3e 54e7 5abb 8113 6f3d
00000270: d611 e83d 9a8f fa3d 684f b1bd 8705 803d
00000280: 85f2 cdbc e781 063d 80a9 86bd d840 abbd
00000290: 23ce 47bd 3429 a5bd 0c68 64bd 83b8 233d
000002a0: e036 823d 4bd9 743c 50e0 9f3d 61a5 9f3d
000002b0: a2d3 723e e8ff 423c 6d89 debd 71bc c6bc
000002c0: ebbe 0e3e 403f 393c 38f7 8ebd aee1 e93d
000002d0: 8196 28bd 4421 1fbd 42cd 12bd 2ad5 8cbd
000002e0: 1760 e6bd cf34 c23d 9279 c4bd 6f95 28bd
000002f0: fff2 e63d 54ab fd3d befc 88bd a23b 12be
00000300: 05e3 b2bd ef97 fbbd 7e5b a73d 8a9d d9bd
00000310: 3f4c 773c 0fdc 253d 8fb3 84bd d710 363d

encoder.weight_ih_l1 f4 [200, 50]
0.026284842 -0.047036745 -0.046251904 -0.027333 -0.10449679 0.119520105 0.123530395 -0.14502999
-0.09825574 -0.10733676 0.08754386 -0.045702375 0.1116448 0.057612386 0.0034031011 0.06569945
0.049801305 -0.08631327 0.08941651 -0.007207898 0.04668258 -0.02083466 -0.19446535 0.017612126
0.046489056 -0.004790875 0.003958228 0.10586621 0.115572646 -0.09188569 -0.074711606 0.00010096938
0.049068607 -0.015073054 0.1338775 0.14380014 0.005586402 -0.124889724 0.06116902 -0.068061806
0.051516652 -0.13094005 0.083110794 0.121873036 -0.082880646 -0.06259824 -0.05226861 -0.11305707
0.119241275 -0.04363962 -0.07831432 0.04724117 -0.07504613 -0.038857076 -0.00588466 0.019245557
0.013713674 -0.01202073 -0.08735317 -0.1636507 -0.06131987 0.06073769 0.033987116 -0.006060272
0.031003304 0.011108029 0.10335064 0.15483819 -0.058116533 0.120142736 -0.06722378 0.14879368
0.14460197 -0.060420953 0.024040494 0.048318528 -0.015234871 0.14555521 -0.06859284 0.11841976
0.11626836 -0.07094534 -0.023768699 -0.0090189995 0.007742586 0.051701322 0.023511615 0.018336724
-0.13828172 0.004072295 0.03968818 -0.11094043 -0.06722842 0.03760261 -0.0118020205 -0.061997954
-0.09739185 0.08735225 -0.11453682 0.031771462 -0.11462856 0.008810154 0.051668722 -0.11508091
0.044968154 -0.032975312 0.03790229 -0.12178319 0.02478824 0.061126094 0.0315211 -0.048184287
-0.07945722 -0.008200875 -0.111939274 -0.018811837 0.12815735 -0.133447 0.103158444 0.034633752
0.14104438 -0.037387032 0.03007298 -0.057054337 -0.055023327 0.0034743573 -0.08531668 0.07045056
-0.08310853 0.09876178 0.083934344 -0.025689531 0.033910166 -0.06575917 0.032911155 0.106568076
0.052016363 -0.11087832 0.09667596 0.1375971 -0.0597549 -0.07151936 -0.13051188 0.051648963
0.010890223 0.11709294 0.11141374 -0.04120482 0.12302924 0.07800202 0.10589358 -0.08280152
0.13560891 0.0047592283 -0.055934314 -0.1258725 0.1285484 -0.0514616 0.05173803 -0.044030216
0.06828295 -0.066879794 -0.049387407 -0.14141797 0.021239953 0.029484242 -0.100972615 0.113940075
0.12128735 0.09216908 0.10776532 0.12221652 -0.16111629 0.06290372 0.004168996 -0.1122604
-0.049538404 -0.0460844 -0.057049032 0.025508862 0.046020657 -0.03320536 0.020427901 0.12507138
-0.05588963 0.09462364 -0.120172516 0.07148149 -0.0010835571 0.08918777 -0.14792483 -0.012084424
0.042887066 0.12687285 -0.038117617 -0.098223105 0.107924946 -0.043581437 -0.10423777 -0.13934109
0.035814594 -0.09083837 -0.09299063 -0.06505155 -0.06272581 0.027681286 0.05136407 0.07472258
-0.09641089 -0.079787895 0.107959785 -0.080751814 0.009421845 -0.016526422 -0.0033852418 0.059080537
-0.06654708 -0.14166717 -0.009187752 0.14085583 0.05708933 0.028223278 -0.14140187 0.020836823
-0.019030085 0.019792063 -0.096228406 -0.019387266 -0.045891598 -0.03873038 0.0034183394 -0.024417536
0.11438006 0.099297576 -0.07800749 -0.09008451 0.09660545 -0.047296394 -0.029528946 0.039443213
0.027542092 -0.08005409 0.0069039497 0.10195326 -0.087049596 -0.122906394 0.040886566 -0.13129328
-0.04673389 -0.020617919 -0.103066884 -0.11490316 -0.12759955 0.06891267 -0.084347114 -0.049683373
00000000: 4f53 d73c 9aa9 40bd a372 3dbd 75e9 dfbc
00000010: 6a02 d6bd f5c6 f43d 81fd fc3d be82 14be
00000020: 4e3a c9bd 60d3 dbbd 324a b33d 6a32 3bbd
00000030: 07a6 e43d f7fa 6b3d 9006 5f3b 6f8d 863d
00000040: 74fc 4b3d 03c5 b0bd 0120 b73d 3b30 ecbb
00000050: 3c36 3f3d 73ad aabc ed21 47be 4e47 903c
00000060: 4f6b 3e3d c6fc 9cbb 06b4 813b 62d0 d83d
00000070: 5ab1 ec3d 912e bcbd 6602 99bd 86bf d338
00000080: 2afc 483d f8f4 76bc 2f17 093e 5840 133e
00000090: 230e b73b 2fc6 ffbd 5e8c 7a3d fd63 8bbd
000000a0: 2003 533d 2615 06be fe35 aa3d 9298 f93d
000000b0: 54bd a9bd 8233 80bd 9c17 56bd 778a e7bd
000000c0: c534 f43d 75bf 32bd 4263 a0bd f57f 413d
000000d0: c9b1 99bd 9928 1fbd 1bd4 c0bb dca8 9d3c
000000e0: 51af 603c 99f2 44bc 38e6 b2bd 0d94 27be
000000f0: 8b2a 7bbd 16c8 783d 1336 0b3d 3f95 c6bb
00000100: a4fa fd3c 73fe 353c 80a9 d33d e78d 1e3e
00000110: 9a0b 6ebd 650d f63d 9fac 89bd 5f5d 183e
00000120: 8a12 143e f67b 77bd 92f0 c43c a6e9 453d
00000130: ae9b 79bc 6d0c 153e 677a 8cbd 0f86 f23d
00000140: 1b1e ee3d ca4b 91bd 93b6 c2bc 6dc4 13bc
00000150: 85b5 fd3b c4c4 533d 6e9b c03c e636 963c
00000160: b999 0dbe e370 853b 1390 223d bc34 e3bd
00000170: 0eaf 89bd 3205 1a3d 435d 41bc 91f1 7dbd
00000180: 6175 c7bd bde5 b23d 4892 eabd cb22 023d
00000190: 61c2 eabd 7758 103c 95a2 533d 8aaf ebbd
000001a0: 8730 383d 1f11 07bd 6e3f 1b3d 7769 f9bd
000001b0: b510 cb3c 5b5f 7a3d 451c 013d e35c 45bd
000001c0: 78ba a2bd f65c 06bc 6b40 e5bd 481b 9abc
000001d0: ae3b 033e 55a6 08be bc44 d33d 1fdc 0d3d
000001e0: f06d 103e 2523 19bd 9c5b f63c cfb1 69bd
000001f0: 2460 61bd 0bb2 633b 83ba aebd 6248 903d
00000200: ce34 aabd 9e43 ca3d c5e5 ab3d da72 d2bc
00000210: 63e5 0a3d beac 86bd d9cd 063d 5d40 da3d
00000220: 1c0f 553d 2c14 e3bd 0cfe c53d 41e6 0c3e
00000230: 8ec1 74bd be78 92bd e8a4 05be dd8d 533d
00000240: e86c 323c 6cce ef3d e32c e43d 63c6 28bd
00000250: c1f6 fb3d 86bf 9f3d bcde d83d d893 a9bd
00000260: 10dd 0a3e 4df3 9b3b 611b 65bd b8e4 00be
00000270: 31a2 033e 66c9 52bd 42eb 533d 0759 34bd
00000280: eed7 8b3d 46f8 88bd 734a 4abd dfcf 10be
00000290: 69ff ad3c f088 f13c bbca cebd 6a59 e93d
000002a0: 8165 f83d 25c3 bc3d 10b4 dc3d a84c fa3d
000002b0: abfb 24be aad3 803d 139c 883b c8e8 e5bd
000002c0: c8e8 4abd ffc2 3cbd 3fac 69bd f6f7 d03c
000002d0: 2880 3c3d 5802 08bd 6a58 a73c b612 003e
000002e0: 86ec 64bd 0aca c13d 021d f6bd e364 923d
000002f0: 2506 8eba 14a8 b63d 9b79 17be bffd 45bc
00000300: 59aa 2f3d f5ea 013e 3821 1cbd 3229 c9bd
00000310: c107 dd3d 7382 32bd 9d7a d5bd 6eaf 0ebe
00000320: 53b2 123d 7809 babd df71 bebd bf39 85bd
00000330: 6476 80bd ddc3 e23c 2263 523d 2708 993d
00000340: 1373 c5bd d667 a3bd 051a dd3d 3561 a5bd
00000350: 155e 1a3c 6b62 87bc efda 5dbb 6ffe 713d
00000360: d649 88bd 3311 11be 3a88 16bc 833c 103e
00000370: 80d6 693d 8134 e73c a7cb 10be fcb1 aa3c
00000380: fbe4 9bbc f722 a23c 6613 c5bd 0bd2 9ebc
00000390: d4f8 3bbd bfa3 1ebd 3806 603b 4907 c8bc
000003a0: 1840 ea3d 875c cb3d 64c2 9fbd 3a7e b8bd
000003b0: 14d9 c53d ddb9 41bd b0e6 f1bc 358f 213d
000003c0: f49f e13c 66f3 a3bd 873a e23b dfcc d03d
000003d0: 0f47 b2bd 59b6 fbbd ac78 273d bf71 06be
000003e0: 096c 3fbd e9e6 a8bc bb14 d3bd 5952 ebbd
000003f0: 75a9 02be 1622 8d3d 2ebe acbd cb80 4bbd

encoder.weight_hh_l1 f4 [200, 50]
-0.11771673 0.02705739 0.010184187 0.069051445 -0.107339114 -0.031349704 -0.027497793 0.0724186
-0.031488504 0.06734646 -0.030985262 0.089642376 -0.013500191 -0.002336163 -0.10925025 -0.033505414
0.09028779 0.052638177 0.086942375 0.031617712 0.061897565 -0.027302407 0.028509201 -0.05616778
-0.07681064 0.07914635 -0.041227933 0.11595828 0.035906643 -0.122004494 -0.045885265 -0.03065045
0.013505518 -0.0015749115 0.0066988347 -0.031465303 -0.13198385 0.039323397 -0.12754373 0.09999296
-0.12454706 0.09082258 0.08079621 0.040332805 -0.009932971 0.15714629 0.10893272 -0.058967777
-0.11571304 -0.07904001 -0.03343634 -0.14083791 -0.07767935 0.10178904 -0.0032821773 0.016147727
-0.119983524 0.0015569963 0.071430534 -0.109571874 -0.085680924 0.12567681 -0.12849672 0.06367722
0.07954799 0.0412127 -0.11085581 -0.00017924479 -0.1191469 0.082031466 -0.107297204 -0.043687418
0.04145527 -0.055489056 0.15119328 -0.07350178 0.0792471 -0.05512026 0.13043155 0.13793698
0.08803072 -0.012287363 -0.105518736 0.008639011 0.042661775 0.06721928 0.0074748867 -0.14085859
-0.14330839 0.03041699 0.09804656 0.018119834 0.04762465 -0.0011015335 -0.04572169 0.009546153
0.12705356 -0.08154597 -0.11715159 -0.16308044 -0.058057994 0.11129099 -0.10308365 0.108684115
-0.093110636 -0.09996361 0.1438155 0.03272558 0.06963696 0.07381405 0.0018712796 -0.065272525
-0.06263958 -0.03731694 0.051652387 -0.07690958 -0.07498088 0.014757554 -0.10306429 -0.10631373
0.13653865 0.016546352 -0.0048178467 0.10126417 0.10835318 0.012838781 0.09869139 -0.054920748
-0.07611633 -0.030882366 -0.07681447 0.038162354 -0.07408394 -0.01338109 -0.06788945 0.09908063
0.111779615 -0.0050901943 -0.100496694 -0.050884087 0.036140118 -0.09367404 -0.020992033 -0.039750133
0.0752635 0.046133466 0.067899115 -0.029001104 -0.025291784 0.011804922 -0.120352 -0.15685233
-0.018064795 0.087133974 -0.031044975 -0.0881578 -0.03458692 0.024294343 0.10408909 -0.13675725
-0.06198841 0.113691635 0.071121134 -0.12975499 -0.02446628 0.15788412 0.06600099 0.08490361
0.08779553 0.14891118 -0.068952516 0.035358433 0.01104277 -0.034310788 0.06620706 0.0757813
0.13590886 -0.05159672 -0.050519362 -0.087920815 -0.05114941 0.0017508595 -0.117798775 -0.14210394
-0.071012676 0.06429188 -0.06256277 0.07307152 0.13474025 0.10434153 0.06569915 0.102809936
-0.1441056 0.047309473 -0.029914295 0.09294801 -0.073946096 0.1194599 -0.005136911 0.013504134
0.1273624 0.020476073 0.026592223 0.03702227 0.12225227 -0.10745894 -0.07204953 0.1010364
-0.03660157 0.029321115 -0.10290047 0.09417427 0.12237924 -0.06628662 -0.07580199 0.007052843
-0.12021353 0.10942589 -0.06725941 0.009699995 0.1535478 -0.027648622 -0.094161816 0.09708428
0.08552242 -0.042840313 0.05069299 0.0015480169 -0.087819465 0.10280398 0.08374681 0.14731675
0.09220776 -0.030677764 -0.03323416 0.055624276 0.12053116 -0.05808158 -0.10504288 0.07081442
-0.103594184 0.013687249 -0.104423895 -0.074041255 -0.10387396 -0.08031797 -0.078193836 0.102849975
0.08575048 0.016321557 -0.03496299 -0.13169672 -0.14468253 -0.047150306 0.13921839 0.10164269
00000000: 7815 f1bd 76a7 dd3c 94db 263c d86a 8d3d
00000010: 9cd4 dbbd 8c68 00bd 0d43 e1bc 3450 943d
00000020: 17fa 00bd f1ec 893d ced4 fdbc 6c96 b73d
00000030: e82f 5dbc 501a 19bb 98be dfbd f93c 09bd
00000040: cee8 b83d 219b 573d d80e b23d 9381 013d
00000050: 4d88 7d3d 4ca9 dfbc 218c e93c 3010 66bd
00000060: e64e 9dbd 7b17 a23d 9fde 28bd 897b ed3d
00000070: d812 133d 7edd f9bd 30f2 3bbd a716 fbbc
00000080: 4046 5d3c 436d ceba e681 db3b c3e1 00bd
00000090: c626 07be 9211 213d d39a 02be 1cc9 cc3d
000000a0: 8712 ffbd 3001 ba3d 7c78 a53d 0334 253d
000000b0: e6bd 22bc f5ea 203e 1e18 df3d 3288 71bd
000000c0: f5fa ecbd bbdf a1bd 8bf4 08bd d037 10be
000000d0: 5a16 9fbd c676 d03d cc19 57bb 3d48 843c
000000e0: ecb9 f5bd 2014 cc3a 2c4a 923d 3867 e0bd
000000f0: 7b79 afbd 6cb1 003e a594 03be 3469 823d
00000100: 0eea a23d a6ce 283d 5f08 e3bd a8f3 3bb9
00000110: 4a03 f4bd 1d00 a83d a3be dbbd 94f1 32bd
00000120: 00cd 293d 7e48 63bd 69d2 1a3e 1a88 96bd
00000130: 4e4c a23d c8c5 61bd d98f 053e 5a3f 0d3e
00000140: 7349 b43d f050 49bc 351a d8bd a38a 0d3c
00000150: 1dbe 2e3d 43aa 893d e5ef f43b 3c3d 10be
00000160: 6fbf 12be 0d2d f93c a3cc c83d 0c70 943c
00000170: 1112 433d 5561 90ba ab46 3bbd 7867 1c3c
00000180: 541a 023e 9301 a7bd 2ced efbd 8ffe 26be
00000190: 38ce 6dbd 88ec e33d 851d d3bd c795 de3d
000001a0: cab0 bebd b9b9 ccbd 5f44 133e 420b 063d
000001b0: d39d 8e3d d22b 973d b945 f53a 9aad 85bd
000001c0: 2e49 80bd a6d9 18bd 7491 533d c582 9dbd
000001d0: 938f 99bd abc9 713c 5f13 d3bd 03bb d9bd
000001e0: cad0 0b3e 378c 873c 07df 9dbb 9763 cf3d
000001f0: 46e8 dd3d c059 523c b61e ca3d 94f4 60bd
00000200: e1e2 9bbd 04fd fcbc e850 9dbd 2150 1c3d
00000210: 52b9 97bd 5c3c 5bbc a009 8bbd c9ea ca3d
00000220: b6ec e43d a5cb a6bb 36d1 cdbd d56b 50bd
00000230: a907 143d 2dd8 bfbd 7cf7 abbc 09d1 22bd
00000240: c023 9a3d 72f6 3c3d b10e 8b3d b993 edbc
00000250: b730 cfbc 6e69 413c 1c7b f6bd e69d 20be
00000260: 9ffc 93bc 4c73 b23d 0852 febc 148c b4bd
00000270: 04ab 0dbd ee04 c73c a92c d53d 180a 0cbe
00000280: 8fe7 7dbd 29d7 e83d f5a7 913d 7ede 04be
00000290: 826d c8bc 60ac 213e 872b 873d f2e1 ad3d
000002a0: 25ce b33d 2c7c 183e fa36 8dbd 01d4 103d
000002b0: bcec 343c 7889 0cbd 9197 873d 3a33 9b3d
000002c0: b12b 0b3e 1557 53bd 64ed 4ebd d40f b4bd
000002d0: 0b82 51bd 197d e53a 7c40 f1bd b283 11be
000002e0: 186f 91bd 76ab 833d e920 80bd 85a6 953d
000002f0: 59f9 093e 03b1 d53d 478d 863d 048e d23d
00000300: 6b90 13be 94c7 413d d30e f5bc 875b be3d
00000310: 0d71 97bd 64a7 f43d 8853 a8bb 7140 5d3c
00000320: 4a6b 023e 70bd a73c efd7 d93c aaa4 173d
00000330: 665f fa3d 6f13 dcbd b48e 93bd 2cec ce3d
00000340: 87eb 15bd d632 f03c 7bbd d2bd 71de c03d
00000350: f8a1 fa3d 48c1 87bd 133e 9bbd 891b e73b
00000360: 8332 f6bd ae1a e03d 4dbf 89bd baec 1e3c
00000370: a23b 1d3e 5d7f e2bc e9d7 c0bd 1fd4 c63d
00000380: 6126 af3d 5379 2fbd 74a3 4f3d d4e6 ca3a
00000390: b1da b3bd e58a d23d 7383 ab3d 34da 163e
000003a0: 6cd7 bc3d ef4f fbbc 8b20 08bd 48d6 633d
000003b0: 0ad9 f63d f3e6 6dbd b920 d7bd 2707 913d
000003c0: 3029 d4bd 7c40 603c 32dc d5bd f1a2 97bd
000003d0: dfbb d4bd bf7d a4bd 1724 a0bd 02a3 d23d
000003e0: f39d af3d c9b4 853c 5a35 0fbd 81db 06be
000003f0: a827 14be ae20 41bd 448f 0e3e 0b2a d03d

encoder.bias_ih_l1 f4 [200]
-0.062828965 -0.14370492 0.045599077 -0.06770806 -0.07161325 -0.11784007 -0.11620811 -0.05253287
0.02416342 -0.040301096 -0.006904747 -0.06387686 -0.084329896 0.02425929 -0.08515202 -0.080286585
0.0057114125 0.098352455 0.031946182 -0.15481454 -0.1485806 0.055615503 -0.065419935 0.0063648797
0.022958742 0.12618293 0.11833603 -0.08629079 -0.0068769944 0.023944337 -0.045197107 -0.037899565
0.02185844 -0.024268089 0.013738375 0.0838661 -0.0049550836 -0.10649962 -0.047649417 0.072016664
-0.052413713 0.073101856 0.15702087 0.14432985 0.1087318 -0.11338906 -0.05937567 -0.0981327
0.035197284 -0.092552155 -0.012695323 0.035549913 0.0914208 -0.015289458 0.012182433 0.057236988
0.051560927 0.06926132 -0.017707616 0.0020299065 0.03331573 -0.111878954 0.109502986 0.10489333
0.03370587 -0.12221595 0.06961435 0.060046256 -0.042858645 0.023300378 -0.008373716 0.0007572463
-0.045176726 0.12084286 0.027406298 0.07477434 -0.06727128 -0.0029278614 -0.045638487 -0.0802916
0.07195617 0.11165017 -0.07291961 -0.009719235 -0.041428838 0.0076028644 0.008164305 0.070226364
-0.046406064 0.01678417 -0.124809094 -0.058666557 0.014149364 0.03753249 0.035194047 -0.07486629
-0.05680196 0.017193101 0.024303058 0.020674152 -0.093034275 -0.011583212 -0.088467754 0.109187864
0.023920719 0.052191418 0.08540885 0.028856032 0.1068083 0.027380543 0.06044104 -0.068549514
0.16246092 0.012501382 -0.09589525 0.058452833 -0.12106391 0.023552142 0.01083484 0.03732358
-0.083810315 0.14103931 0.15870732 -0.056150466 -0.049729016 0.030390542 -0.14357625 0.15898815
-0.023569463 -0.14341691 0.06864832 -0.015344309 -0.1383552 -0.121261016 0.12937708 -0.109843455
-0.12181007 0.10919009 0.089897685 -0.14869127 -0.08839928 -0.06244231 -0.1260073 0.0451173
-0.079397745 0.07144686 0.06916699 0.06349319 -0.008597499 0.14242291 -0.06775713 0.1150109
0.061381944 0.12045302 -0.07807897 -0.021045351 -0.044362117 -0.0014311499 -0.1532552 -0.13459688
-0.0015658973 0.11438186 -0.10972238 0.124977775 -0.024222005 -0.15756299 -0.031729154 -0.016209973
0.07170422 0.006956657 0.0015092924 0.00065168826 0.13442329 0.11355246 0.101283856 -0.068515114
-0.12887909 -8.755952e-05 -0.035378747 -0.08640497 -0.052385706 0.012308888 0.026358908 0.118270405
0.073073156 -0.0018191069 -0.121226326 -0.058125656 -0.10227096 -0.1009507 -0.15009572 0.04924833
-0.03612762 0.115236044 -0.061821707 -0.096548274 0.011347467 -0.024736285 -0.061210457 -0.054342028
00000000: 79ac 80bd 6227 13be 19c6 3a3d 86aa 8abd
00000010: f8a9 92bd 2256 f1bd 84fe edbd b52c 57bd
00000020: 5df2 c53c c312 25bd 3741 e2bb dfd1 82bd
00000030: 27b5 acbd 6bbb c63c 2f64 aebd 4b6d a4bd
00000040: cd26 bb3b 036d c93d 00da 023d b487 1ebe
00000050: 8325 18be 15cd 633d e3fa 85bd 7b90 d03b
00000060: f913 bc3c 1936 013e 295a f23d 3ab9 b0bd
00000070: 6958 e1bb ea26 c43c 9a20 39bd 933c 1bbd
00000080: 7910 b33c dfcd c6bc ec16 613c fdc1 ab3d
00000090: 415e a2bb 791c dabd 092c 43bd 797d 933d
000000a0: c3af 56bd 6db6 953d 14ca 203e 34cb 133e
000000b0: c7ae de3d 8638 e8bd e733 73bd ccf9 c8bd
000000c0: 072b 103d fc8b bdbd 0b00 50bc c99c 113d
000000d0: d43a bb3d a380 7abc d498 473c 5571 6a3d
000000e0: 8d31 533d e1d8 8d3d 900f 91bc 2e08 053b
000000f0: 1376 083d cb20 e5bd 1a43 e03d 50d2 d63d
00000100: 2b0f 0a3d 5b4c fabd f891 8e3d 10f3 753d
00000110: 8c8c 2fbd 6fe0 be3c e931 09bc f081 463a
00000120: 3b0b 39bd 767c f73d 2c83 e03c 4a23 993d
00000130: 86c5 89bd 5de1 3fbb 6cef 3abd ec6f a4bd
00000140: c25d 933d d8a8 e43d e056 95bd 6d3d 1fbc
00000150: 49b1 29bd 7321 f93b 94c3 053c d7d2 8f3d
00000160: 4914 3ebd f57e 893c e99b ffbd 584c 70bd
00000170: bcd2 673c abbb 193d a227 103d 7f53 99bd
00000180: 2ca9 68bd 8cd8 8c3c 3517 c73c d75c a93c
00000190: c188 bebd 83c7 3dbc 952e b5bd e39d df3d
000001a0: 62f5 c33c abc6 553d d6ea ae3d 7c63 ec3c
000001b0: 4fbe da3d 294d e03c 0691 773d b063 8cbd
000001c0: 285c 263e 99d2 4c3c bb64 c4bd 3d6c 6f3d
000001d0: 5bf0 f7bd 6cf0 c03c 9d84 313c 9ce0 183d
000001e0: bea4 abbd 9c6c 103e 2c84 223e 08fe 65bd
000001f0: a7b0 4bbd 96f5 f83c a705 13be cacd 223e
00000200: bf14 c1bc e2db 12be 7e97 8c3d b266 7bbc
00000210: fcac 0dbe b257 f8bd 6d7b 043e 9bf5 e0bd
00000220: 8f77 f9bd 0e9f df3d 471c b83d 8642 18be
00000230: af0a b5bd 82c3 7fbd 0f08 01be ebcc 383d
00000240: 499b a2bd bb52 923d 6ca7 8d3d b808 823d
00000250: 86dc 0cbc 50d7 113e 40c4 8abd d68a eb3d
00000260: a26b 7b3d 13b0 f63d dee7 9fbd 4d67 acbc
00000270: 0db5 35bd 6c95 bbba eeee 1cbe c4d3 09be
00000280: cb3e cdba 0941 ea3d 21b6 e0bd 59f4 ff3d
00000290: 3a6d c6bc 3158 21be 6ef6 01bd c7ca 84bc
000002a0: a9d9 923d abf4 e33b 73d3 c53a 0fd6 2a3a
000002b0: 42a6 093e 318e e83d e96d cf3d a751 8cbd
000002c0: e1f8 03be 29a0 b7b8 4ee9 10bd 17f5 b0bd
000002d0: 6592 56bd 38ab 493c a3ee d73c c137 f23d
000002e0: 61a7 953d 196f eeba 8245 f8bd 2b15 6ebd
000002f0: 7073 d1bd 3ebf cebd b1b2 19be 9eb8 493d
00000300: 8efa 13bd e000 ec3d c238 7dbd 1abb c5bd
00000310: baea 393c c0a3 cabc d1b7 7abd bf95 5ebd

encoder.bias_hh_l1 f4 [200]
0.04456854 -0.15903242 -0.014637992 -0.09255243 -0.023610314 -0.08778512 0.056039214 0.05617017
-0.057172462 -0.068210304 0.039498176 -0.10414359 -0.019212984 0.14475757 0.10970861 0.07148532
-0.020190882 -0.09227211 -0.03376467 -0.13073558 -0.16139159 0.106245965 0.059533805 -0.008752336
0.047341704 -0.012784343 -0.045845013 -0.03610855 -0.13911965 -0.078538425 -0.0124041755 -0.07067314
0.04146252 -0.03368507 0.043529384 0.10311673 -0.123820096 0.039356638 0.018726934 -0.10323311
-0.09857511 0.09853542 -0.042368464 0.1583123 -0.012221115 0.08268146 -0.15504998 -0.08058727
-0.0650257 0.027329782 -0.028515872 -0.019604579 0.04940352 -0.07460317 0.08108349 -0.094587535
-0.10418454 -0.12001833 0.08616605 0.10913397 0.07533957 0.0135343615 -0.10473635 0.066971354
-0.10848177 0.084414646 0.104411125 -0.054552123 0.050873127 0.10306289 0.10378879 0.15048946
-0.020763889 -0.051315956 0.005903986 0.11084112 0.05426624 0.019726932 -0.019316258 -0.08233027
0.12348723 -0.054256406 0.035361417 0.07827232 0.09354108 0.094404876 0.08346067 -0.09675959
0.10339927 -0.029235791 -0.11631406 0.010281852 -0.049471814 0.14037554 -0.0009811887 -0.15885961
-0.06970923 -0.09776888 0.07108736 0.033266697 -0.03997994 -0.0916073 0.105055906 0.15463085
-0.14604592 -0.119544476 0.054737613 0.08057997 -0.010998755 0.13004535 0.08797615 0.020532306
-0.09750869 0.0645515 0.014289323 0.021888353 -0.0972878 -0.011010936 -0.06724642 0.047146227
0.120908946 0.095365964 -0.004445244 -0.063414544 -0.0018016238 0.116417855 -0.102874584 0.07321875
0.030514674 -0.045958314 -0.15941279 0.028177286 -0.16165033 0.066277474 0.11632404 -0.050694607
-0.0660299 0.0018995892 0.13334619 -0.12635913 0.12411481 -0.044551764 -0.082354315 -0.020951396
-0.0028336889 0.09586894 0.11342506 -0.034527067 0.1002383 0.041679755 -0.10916068 -0.089852855
0.039311685 0.07082175 0.102311224 -0.07178786 0.0031697648 0.04915132 -0.07317505 0.12243305
0.003105169 0.0546342 0.050452866 0.11933743 0.06058514 -0.04197957 0.114094995 0.04387721
-0.10357777 0.007601915 -0.04673431 -0.051337402 -0.09436442 0.020286841 -0.07872698 -0.08538988
-0.11381533 0.14822842 -0.12303138 0.12977807 -0.11746059 -0.051799975 -0.004896421 -0.011318613
-0.029134357 0.03153429 0.12898357 -0.12653 -0.07078245 -0.118280865 -0.05764942 -0.116234444
0.02934471 -0.032140728 -0.042703517 -0.14868625 -0.10757361 -0.02919879 0.032241996 -0.014358802
00000000: 808d 363d 65d9 22be 30d4 6fbc 218c bdbd
00000010: 6b6a c1bc afc8 b3bd 6089 653d b112 663d
00000020: ac2d 6abd d8b1 8bbd d7c8 213d 3c49 d5bd
00000030: 8c64 9dbc 543b 143e e8ae e03d e566 923d
00000040: 5967 a5bc 29f9 bcbd d34c 0abd 8cdf 05be
00000050: d643 25be 7c97 d93d b8d9 733d f565 0fbc
00000060: 60e9 413d 6c75 51bc fbc7 3bbd 8fe6 13bd
00000070: 6275 0ebe c1d8 a0bd e23a 4bbc 14bd 90bd
00000080: 9ad4 293d 5bf9 09bd de4b 323d dd2e d33d
00000090: 6495 fdbd 6d34 213d 3a69 993c e16b d3bd
000000a0: bfe1 c9bd f0cc c93d 8e8a 2dbd 9f1c 223e
000000b0: 123b 48bc e654 a93d 6cc5 1ebe f00a a5bd
000000c0: 322c 85bd b5e2 df3c 1e9a e9bc c899 a0bc
000000d0: 585b 4a3d 8cc9 98bd 1a0f a63d 1cb7 c1bd
000000e0: b45e d5bd 2ccc f5bd d377 b03d a281 df3d
000000f0: a24b 9a3d 3abf 5d3c 0380 d6bd 4728 893d
00000100: b12b debd 96e1 ac3d 80d5 d53d 0c72 5fbd
00000110: 5760 503d a312 d33d 388f d43d e919 1a3e
00000120: 0819 aabc ae30 52bd 3976 c13b ab00 e33d
00000130: 4746 5e3d 609a a13c 213d 9ebc c69c a8bd
00000140: dfe6 fc3d f73b 5ebd 22d7 103d 3d4d a03d
00000150: 7792 bf3d 5857 c13d 6eed aa3d e429 c6bd
00000160: ffc2 d33d e67f efbc 1136 eebd 3775 283c
00000170: f5a2 4abd 9bbe 0f3e 3b9b 80ba 18ac 22be
00000180: b6c3 8ebd 0d3b c8bd 4096 913d a942 083d
00000190: 01c2 23bd 9c9c bbbd 8d27 d73d 8d57 1e3e
000001a0: 108d 15be bcd3 f4bd 8c34 603d 1c07 a53d
000001b0: 1f34 34bc 9c2a 053e d72c b43d 5e33 a83c
000001c0: a3b2 c7bd 9433 843d c41d 6a3c 344f b33c
000001d0: d33e c7bd 3767 34bc 7eb8 89bd 671c 413d
000001e0: 1c9f f73d 3b4f c33d 69a9 91bb 7cdf 81bd
000001f0: 7724 ecba 7c6c ee3d e9af d2bd b6f3 953d
00000200: e9f9 f93c c93e 3cbd 1b3d 23be 0dd4 e63c
00000210: aa87 25be 7cbc 873d 4c3b ee3d 26a5 4fbd
00000220: af3a 87bd a3fb f83a e78b 083e 4a64 01be
00000230: e82f fe3d e97b 36bd 61a9 a8bd 43a2 abbc
00000240: 69b5 39bb ef56 c43d 664b e83d 416c 0dbd
00000250: bd49 cd3d 64b8 2a3d a28f dfbd c604 b8bd
00000260: 4a05 213d fe0a 913d 8c88 d13d 8305 93bd
00000270: d4bb 4f3b e552 493d cddc 95bd 2ebe fa3d
00000280: 1780 4b3b 1cc8 5f3d aaa7 4e3d 2f67 f43d
00000290: 2028 783d c5f2 2bbd a3aa e93d 97b8 333d
000002a0: 9520 d4bd 7c19 f93b 7a6c 3fbd 2b47 52bd
000002b0: 2242 c1bd 9730 a63c 9c3b a1bd e4e0 aebd
000002c0: 0318 e9bd 31c9 173e e0f7 fbbd 8be4 043e
000002d0: 2e8f f0bd 362c 54bd 2872 a0bb b471 39bc
000002e0: 2dab eebc 1a2a 013d 4514 043e 1591 01be
000002f0: 64f6 90bd 3d3d f2bd cc21 6cbd 530c eebd
00000300: 5164 f03c ffa5 03bd e2e9 2ebd 3541 18be
00000310: 8e4f dcbd 4d32 efbc 2f10 043d 2e41 6bbc

decoder.weight f4 [1, 50]
-0.09127795 0.047023706 0.10737822 0.030849358 -0.09464654 -0.016979683 -0.06218571 0.09906508
-0.06530457 0.07681082 -0.041843742 -0.040116798 0.094745256 0.13594058 0.110037856 -0.070848145
-0.13461788 -0.030534998 0.038001858 -0.04340746 -0.036789298 0.076525986 0.14400353 -0.14135495
0.04374737 0.06839785 -0.026553422 0.068338215 0.03794188 -0.08950586 -0.054922678 -0.026337598
-0.09886847 -0.13614435 -0.011533015 -0.054639995 -0.052515514 -0.055519026 0.12318255 -0.08981762
0.041423332 -0.042333454 -0.12815271 0.13916214 -0.1349884 -0.072352454 -0.103170484 0.01115623
0.14353293 0.03405714
00000000: efef babd ee9b 403d 1de9 db3d cbb7 fc3c
00000010: 0cd6 c1bd fa18 8bbc 71b6 7ebd a2e2 ca3d
00000020: 67be 85bd fe4e 9d3d 5864 2bbd 8351 24bd
00000030: cd09 c23d 0234 0b3e 875b e13d d518 91bd
00000040: 45d9 09be 8824 fabc d6a7 1b3d 05cc 31bd
00000050: 60b0 16bd a8b9 9c3d a975 133e 5abf 10be
00000060: 7130 333d 2c14 8c3d 9086 d9bc e8f4 8b3d
00000070: f268 1b3d d94e b7bd 9af6 60bd f2c1 d7bc
00000080: 8d7b cabd 6d69 0bbe f9f4 3cbc 30ce 5fbd
00000090: 821a 57bd eb67 63bd 2247 fc3d 4df2 b7bd
000000a0: 83ab 293d d865 2dbd 773a 03be 8580 0e3e
000000b0: 663a 0abe 862d 94bd 0c4b d3bd 9fc8 363c
000000c0: 4cfa 123e 807f 0b3d
